…
2024-05-16 19:30:02,995 [MainThread] INFO Dataset - Slice builder config: {'name': 'FilterSliceBuilder', 'patch_shape': [180, 180, 180], 'stride_shape': [76, 76, 76], 'threshold': 0.01, 'slack_acceptance': 0.01}
2024-05-16 19:30:02,996 [MainThread] INFO Dataset - Filtering slices...
2024-05-16 19:30:03,009 [MainThread] INFO HDF5Dataset - Number of patches: 8
2024-05-16 19:30:03,009 [MainThread] INFO Dataset - Number of workers for train/val dataloader: 8
2024-05-16 19:30:03,009 [MainThread] INFO Dataset - Batch size for train/val loader: 1
2024-05-16 19:30:03,257 [MainThread] INFO UNetTrainer - ResidualUNetSE3D(
  (encoders): ModuleList(
    (0): Encoder(
      (basic_module): ResNetBlockSE(
        (conv1): Conv3d(1, 32, kernel_size=(1, 1, 1), stride=(1, 1, 1))
        (conv2): SingleConv(
          (groupnorm): GroupNorm(8, 32, eps=1e-05, affine=True)
          (conv): Conv3d(32, 32, kernel_size=(3, 3, 3), stride=(1, 1, 1), padding=(1, 1, 1), bias=False)
          (ReLU): ReLU(inplace=True)
        )
        (conv3): SingleConv(
          (groupnorm): GroupNorm(8, 32, eps=1e-05, affine=True)
          (conv): Conv3d(32, 32, kernel_size=(3, 3, 3), stride=(1, 1, 1), padding=(1, 1, 1), bias=False)
        )
        (non_linearity): ReLU(inplace=True)
        (se_module): ChannelSpatialSELayer3D(
          (cSE): ChannelSELayer3D(
            (avg_pool): AdaptiveAvgPool3d(output_size=1)
            (fc1): Linear(in_features=32, out_features=32, bias=True)
            (fc2): Linear(in_features=32, out_features=32, bias=True)
            (relu): ReLU()
            (sigmoid): Sigmoid()
          )
          (sSE): SpatialSELayer3D(
            (conv): Conv3d(32, 1, kernel_size=(1, 1, 1), stride=(1, 1, 1))
            (sigmoid): Sigmoid()
          )
        )
      )
    )
    (1): Encoder(
      (pooling): MaxPool3d(kernel_size=2, stride=2, padding=0, dilation=1, ceil_mode=False)
      (basic_module): ResNetBlockSE(
        (conv1): Conv3d(32, 64, kernel_size=(1, 1, 1), stride=(1, 1, 1))
        (conv2): SingleConv(
          (groupnorm): GroupNorm(8, 64, eps=1e-05, affine=True)
          (conv): Conv3d(64, 64, kernel_size=(3, 3, 3), stride=(1, 1, 1), padding=(1, 1, 1), bias=False)
          (ReLU): ReLU(inplace=True)
        )
        (conv3): SingleConv(
          (groupnorm): GroupNorm(8, 64, eps=1e-05, affine=True)
          (conv): Conv3d(64, 64, kernel_size=(3, 3, 3), stride=(1, 1, 1), padding=(1, 1, 1), bias=False)
        )
        (non_linearity): ReLU(inplace=True)
        (se_module): ChannelSpatialSELayer3D(
          (cSE): ChannelSELayer3D(
            (avg_pool): AdaptiveAvgPool3d(output_size=1)
            (fc1): Linear(in_features=64, out_features=64, bias=True)
            (fc2): Linear(in_features=64, out_features=64, bias=True)
            (relu): ReLU()
            (sigmoid): Sigmoid()
          )
          (sSE): SpatialSELayer3D(
            (conv): Conv3d(64, 1, kernel_size=(1, 1, 1), stride=(1, 1, 1))
            (sigmoid): Sigmoid()
          )
        )
      )
    )
    (2): Encoder(
      (pooling): MaxPool3d(kernel_size=2, stride=2, padding=0, dilation=1, ceil_mode=False)
      (basic_module): ResNetBlockSE(
        (conv1): Conv3d(64, 128, kernel_size=(1, 1, 1), stride=(1, 1, 1))
        (conv2): SingleConv(
          (groupnorm): GroupNorm(8, 128, eps=1e-05, affine=True)
          (conv): Conv3d(128, 128, kernel_size=(3, 3, 3), stride=(1, 1, 1), padding=(1, 1, 1), bias=False)
          (ReLU): ReLU(inplace=True)
        )
        (conv3): SingleConv(
          (groupnorm): GroupNorm(8, 128, eps=1e-05, affine=True)
          (conv): Conv3d(128, 128, kernel_size=(3, 3, 3), stride=(1, 1, 1), padding=(1, 1, 1), bias=False)
        )
        (non_linearity): ReLU(inplace=True)
        (se_module): ChannelSpatialSELayer3D(
          (cSE): ChannelSELayer3D(
            (avg_pool): AdaptiveAvgPool3d(output_size=1)
            (fc1): Linear(in_features=128, out_features=128, bias=True)
            (fc2): Linear(in_features=128, out_features=128, bias=True)
            (relu): ReLU()
            (sigmoid): Sigmoid()
          )
          (sSE): SpatialSELayer3D(
            (conv): Conv3d(128, 1, kernel_size=(1, 1, 1), stride=(1, 1, 1))
            (sigmoid): Sigmoid()
          )
        )
      )
    )
    (3): Encoder(
      (pooling): MaxPool3d(kernel_size=2, stride=2, padding=0, dilation=1, ceil_mode=False)
      (basic_module): ResNetBlockSE(
        (conv1): Conv3d(128, 256, kernel_size=(1, 1, 1), stride=(1, 1, 1))
        (conv2): SingleConv(
          (groupnorm): GroupNorm(8, 256, eps=1e-05, affine=True)
          (conv): Conv3d(256, 256, kernel_size=(3, 3, 3), stride=(1, 1, 1), padding=(1, 1, 1), bias=False)
          (ReLU): ReLU(inplace=True)
        )
        (conv3): SingleConv(
          (groupnorm): GroupNorm(8, 256, eps=1e-05, affine=True)
          (conv): Conv3d(256, 256, kernel_size=(3, 3, 3), stride=(1, 1, 1), padding=(1, 1, 1), bias=False)
        )
        (non_linearity): ReLU(inplace=True)
        (se_module): ChannelSpatialSELayer3D(
          (cSE): ChannelSELayer3D(
            (avg_pool): AdaptiveAvgPool3d(output_size=1)
            (fc1): Linear(in_features=256, out_features=256, bias=True)
            (fc2): Linear(in_features=256, out_features=256, bias=True)
            (relu): ReLU()
            (sigmoid): Sigmoid()
          )
          (sSE): SpatialSELayer3D(
            (conv): Conv3d(256, 1, kernel_size=(1, 1, 1), stride=(1, 1, 1))
            (sigmoid): Sigmoid()
          )
        )
      )
    )
  )
  (decoders): ModuleList(
    (0): Decoder(
      (upsampling): TransposeConvUpsampling(
        (upsample): Upsample(
          (conv_transposed): ConvTranspose3d(256, 128, kernel_size=(3, 3, 3), stride=(2, 2, 2), padding=(1, 1, 1), bias=False)
        )
      )
      (basic_module): ResNetBlockSE(
        (conv1): Identity()
        (conv2): SingleConv(
          (groupnorm): GroupNorm(8, 128, eps=1e-05, affine=True)
          (conv): Conv3d(128, 128, kernel_size=(3, 3, 3), stride=(1, 1, 1), padding=(1, 1, 1), bias=False)
          (ReLU): ReLU(inplace=True)
        )
        (conv3): SingleConv(
          (groupnorm): GroupNorm(8, 128, eps=1e-05, affine=True)
          (conv): Conv3d(128, 128, kernel_size=(3, 3, 3), stride=(1, 1, 1), padding=(1, 1, 1), bias=False)
        )
        (non_linearity): ReLU(inplace=True)
        (se_module): ChannelSpatialSELayer3D(
          (cSE): ChannelSELayer3D(
            (avg_pool): AdaptiveAvgPool3d(output_size=1)
            (fc1): Linear(in_features=128, out_features=128, bias=True)
            (fc2): Linear(in_features=128, out_features=128, bias=True)
            (relu): ReLU()
            (sigmoid): Sigmoid()
          )
          (sSE): SpatialSELayer3D(
            (conv): Conv3d(128, 1, kernel_size=(1, 1, 1), stride=(1, 1, 1))
            (sigmoid): Sigmoid()
          )
        )
      )
    )
    (1): Decoder(
      (upsampling): TransposeConvUpsampling(
        (upsample): Upsample(
          (conv_transposed): ConvTranspose3d(128, 64, kernel_size=(3, 3, 3), stride=(2, 2, 2), padding=(1, 1, 1), bias=False)
        )
      )
      (basic_module): ResNetBlockSE(
        (conv1): Identity()
        (conv2): SingleConv(
          (groupnorm): GroupNorm(8, 64, eps=1e-05, affine=True)
          (conv): Conv3d(64, 64, kernel_size=(3, 3, 3), stride=(1, 1, 1), padding=(1, 1, 1), bias=False)
          (ReLU): ReLU(inplace=True)
        )
        (conv3): SingleConv(
          (groupnorm): GroupNorm(8, 64, eps=1e-05, affine=True)
          (conv): Conv3d(64, 64, kernel_size=(3, 3, 3), stride=(1, 1, 1), padding=(1, 1, 1), bias=False)
        )
        (non_linearity): ReLU(inplace=True)
        (se_module): ChannelSpatialSELayer3D(
          (cSE): ChannelSELayer3D(
            (avg_pool): AdaptiveAvgPool3d(output_size=1)
            (fc1): Linear(in_features=64, out_features=64, bias=True)
            (fc2): Linear(in_features=64, out_features=64, bias=True)
            (relu): ReLU()
            (sigmoid): Sigmoid()
          )
          (sSE): SpatialSELayer3D(
            (conv): Conv3d(64, 1, kernel_size=(1, 1, 1), stride=(1, 1, 1))
            (sigmoid): Sigmoid()
          )
        )
      )
    )
    (2): Decoder(
      (upsampling): TransposeConvUpsampling(
        (upsample): Upsample(
          (conv_transposed): ConvTranspose3d(64, 32, kernel_size=(3, 3, 3), stride=(2, 2, 2), padding=(1, 1, 1), bias=False)
        )
      )
      (basic_module): ResNetBlockSE(
        (conv1): Identity()
        (conv2): SingleConv(
          (groupnorm): GroupNorm(8, 32, eps=1e-05, affine=True)
          (conv): Conv3d(32, 32, kernel_size=(3, 3, 3), stride=(1, 1, 1), padding=(1, 1, 1), bias=False)
          (ReLU): ReLU(inplace=True)
        )
        (conv3): SingleConv(
          (groupnorm): GroupNorm(8, 32, eps=1e-05, affine=True)
          (conv): Conv3d(32, 32, kernel_size=(3, 3, 3), stride=(1, 1, 1), padding=(1, 1, 1), bias=False)
        )
        (non_linearity): ReLU(inplace=True)
        (se_module): ChannelSpatialSELayer3D(
          (cSE): ChannelSELayer3D(
            (avg_pool): AdaptiveAvgPool3d(output_size=1)
            (fc1): Linear(in_features=32, out_features=32, bias=True)
            (fc2): Linear(in_features=32, out_features=32, bias=True)
            (relu): ReLU()
            (sigmoid): Sigmoid()
          )
          (sSE): SpatialSELayer3D(
            (conv): Conv3d(32, 1, kernel_size=(1, 1, 1), stride=(1, 1, 1))
            (sigmoid): Sigmoid()
          )
        )
      )
    )
  )
  (final_conv): Conv3d(32, 3, kernel_size=(1, 1, 1), stride=(1, 1, 1))
  (final_activation): Softmax(dim=1)
)
2024-05-16 19:30:03,258 [MainThread] INFO UNetTrainer - eval_score_higher_is_better: True
2024-05-16 19:30:03,706 [MainThread] INFO UNetTrainer - Training iteration [1/6000000]. Epoch [0/49]
/home/james/anaconda3/envs/pytorch-3dunet-e/lib/python3.12/site-packages/torch/nn/modules/conv.py:605: UserWarning: Plan failed with a cudnnException: CUDNN_BACKEND_EXECUTION_PLAN_DESCRIPTOR: cudnnFinalize Descriptor Failed cudnn_status: CUDNN_STATUS_NOT_SUPPORTED (Triggered internally at /opt/conda/conda-bld/pytorch_1712608847532/work/aten/src/ATen/native/cudnn/Conv_v8.cpp:919.)
…
